model/cnn_model.pth (torch, 17432 bytes, 7 tensors)

layers.0.weight f4 [64, 13]
-0.10118695 -0.034347467 -0.22451814 0.25512263 -0.38756776 -0.39657325 0.1937181 -0.09823411
-0.21667947 -0.003816496 0.16865823 0.14137147 0.21006696 0.19704957 -0.18218079 0.24212445
0.0958725 0.2491523 0.04021093 -0.15651122 -0.22122964 -0.13150164 -0.044052776 0.19412938
0.20586373 -0.22824472 -0.24945442 -0.20093417 -0.21060346 -0.04912173 -0.22621003 -0.04292743
0.020998225 0.015255729 -0.2489166 -0.16450971 -0.2540472 0.2734857 0.03453033 0.0741527
0.19061403 0.33744216 -0.11564308 0.10860226 0.057089426 -0.0017206494 0.07496544 0.25078404
0.20590201 0.0026275788 0.24553578 -0.14450799 0.004900257 -0.2655503 0.101489425 0.061448
-0.14659542 -0.25319684 0.1656692 -0.006890533 -0.23514257 0.007640792 -0.23714551 -0.14399457
-0.043551918 -0.094221085 -0.18392116 0.25745448 0.09565186 0.20063215 -0.15817143 0.12819378
0.018383436 0.23296712 -0.12986645 0.25087187 -0.2590095 0.049940895 0.19260727 0.20172459
0.09045815 -0.31678367 -0.12588882 0.10347149 0.23690885 0.22861409 0.214479 -0.22004938
-0.048047744 0.19176313 -0.13168812 -0.09067585 -0.26892683 0.13313873 -0.30631983 -0.14333403
-0.18067499 0.26052663 0.26783317 -0.03450276 -0.23007253 0.15706179 0.23257163 0.13483393
-0.22046174 0.03603908 -0.0006414496 0.15285072 -0.20436142 0.062164802 -0.22784702 -0.15310636
-0.24432945 0.22953911 -0.04527098 -0.21503827 0.091391176 -0.0799119 -0.123756215 -0.06322298
0.38256347 0.105130166 -0.26191893 -0.16977437 -0.17603005 0.047776595 0.044886615 0.06564283
-0.1722479 0.23319209 -0.092071906 0.21581867 0.08719962 -0.13592367 -0.06336511 0.13036261
-0.16748573 0.15725556 0.114460155 0.083161965 -0.053050965 -0.18340397 -0.035280455 -0.25278598
-0.06884922 -0.18240894 -0.14698394 0.26859948 -0.2169875 -0.24945436 -0.08086738 0.008396374
-0.24818 -0.03606285 0.21672103 0.03933153 -0.21620521 0.22040732 -0.08591352 -0.21555242
-0.19123824 0.2588256 -0.25636545 -0.0067304433 0.07882289 -0.12539174 -0.23423487 0.030867476
0.08811552 0.20961405 -0.07610282 -0.2896858 0.26411358 -0.3025654 0.10478444 0.18840311
0.21651696 0.1108822 0.13138819 0.12239757 -0.1419836 0.053131692 -0.15516025 -0.22527015
-0.07688399 0.04243635 0.0729893 0.124069035 -0.08004481 0.05472245 0.002061526 0.15460427
0.15893883 -0.09177659 -0.06839435 0.14912784 -0.25619483 0.1575897 -0.18274496 0.27301267
0.09090587 -0.21837875 -0.25141963 -0.23070513 -0.24883603 -0.10886655 0.20795822 0.046359416
-0.2677818 -0.052496318 0.16036333 0.04629161 0.08454913 -0.18539573 0.14236158 -0.11870929
0.14469743 -0.027544057 0.03014924 -0.1543456 0.23117709 -0.10182137 0.0747976 0.06263799
-0.14978951 0.14323156 -0.20231858 0.015413074 -0.14425322 -0.22884376 0.24512781 0.27705857
0.2514708 -0.2560515 -0.04099333 -0.010417498 0.061316546 -0.18723027 -0.16196921 -0.24389136
-0.2693171 -0.10924332 -0.0111951325 -0.15456773 -0.14580113 0.14431201 -0.2320024 -0.0048853727
-0.29005963 0.049020417 -0.066542596 -0.066796966 0.19577967 0.0882817 0.17688699 0.24823934
00000000: 1b3b cfbd eeaf 0cbd 15e8 65be 6f9f 823e
00000010: 486f c6be a60b cbbe 0a5e 463e f72e c9bd
00000020: 39e1 5dbe 2e1e 7abb beb4 2c3e afc3 103e
00000030: cb1b 573e 5dc7 493e 9a8d 3abe 79ef 773e
00000040: cd58 c43d c821 7f3e 37b4 243d 7a44 20be
00000050: 068a 62be 5ea8 06be af70 34bd dac9 463e
00000060: f1cd 523e fcb8 69be fb70 7fbe b0c1 4dbe
00000070: 6fa8 57be de33 49bd 9aa3 67be acd4 2fbd
00000080: 7804 ac3c 2af3 793c fee3 7ebe 3c75 28be
00000090: 7912 82be 5106 8c3e ad6f 0d3d 5fdd 973d
000000a0: 5330 433e 38c5 ac3e 47d6 ecbd dd6a de3d
000000b0: 9ad6 693d 6a87 e1ba 7b87 993d c466 803e
000000c0: fad7 523e 7533 2c3b bb6d 7b3e e7f9 13be
000000d0: 5692 a03b 35f6 87be b0d9 cf3d e6b0 7b3d
000000e0: 1c1d 16be 04a3 81be 30a5 293e fbc9 e1bb
000000f0: 37c9 70be 9c5f fa3b 46d6 72be 5073 13be
00000100: 7f63 32bd fcf6 c0bd d455 3cbe 13d1 833e
00000110: 1fe5 c33d 8472 4d3e b1f7 21be 3b45 033e
00000120: dc98 963c ef8e 6e3e b6fb 04be 4772 803e
00000130: e59c 84be d38e 4c3d d73a 453e e490 4e3e
00000140: 1f42 b93d 7831 a2be 00e9 00be dce8 d33d
00000150: 3c98 723e d019 6a3e 62a0 5b3e a054 61be
00000160: b6cd 44bd 8e5d 443e 40d9 06be 43b4 b9bd
00000170: c7b0 89be 8555 083e f4d5 9cbe 28c6 12be
00000180: dd02 39be bf63 853e 6e21 893e c452 0dbd
00000190: 2298 6bbe ced4 203e 4227 6e3e e811 0a3e
000001a0: b9c0 61be b79d 133d f426 28ba e684 1c3e
000001b0: 1f44 51be 85a0 7e3d bb50 69be eac7 1cbe
000001c0: 8031 7abe 4d0c 6b3e 106e 39bd fe32 5cbe
000001d0: 4c2b bb3d daa8 a3bd e673 fdbd 0d7b 81bd
000001e0: 5cdf c33e 7c4e d73d 3d1a 86be 55d9 2dbe
000001f0: 3941 34be 64b1 433d 07db 373d c06f 863d
00000200: c161 30be e8c9 6e3e 3290 bcbd 92ff 5c3e
00000210: b795 b23d 932f 0bbe 91c5 81bd c77d 053e
00000220: 6181 2bbe 9a07 213e 166a ea3d d250 aa3d
00000230: f84b 59bd 40ce 3bbe 3d82 10bd 2a6d 81be
00000240: d200 8dbd 69c9 3abe f582 16be df85 893e
00000250: f931 5ebe f770 7fbe cc9d a5bd f290 093c
00000260: e622 7ebe a4b6 13bd 1eec 5d3e 191a 213d
00000270: e664 5dbe 75b2 613e 6df3 afbd c6b9 5cbe
00000280: f5d3 43be ca84 843e 5542 83be 0d8b dcbb
00000290: e56d a13d b166 00be 44db 6fbe cadd fc3c
000002a0: e975 b43d 11a5 563e ccdb 9bbd b251 94be
000002b0: e539 873e dae9 9abe 3999 d63d bfec 403e
000002c0: 9fb6 5d3e 3516 e33d a08a 063e 94ab fa3d
000002d0: 2664 11be 9ea0 593d 54e2 1ebe 38ad 66be
000002e0: 5a75 9dbd bdd1 2d3d 6a7b 953d e817 fe3d
000002f0: 89ee a3bd a624 603d ab1a 073b 9550 1e3e
00000300: dcc0 223e 5df5 bbbd 5612 8cbd f8b4 183e
00000310: f82b 83be 325f 213e 7f21 3bbe 51c8 8b3e
00000320: db2c ba3d ae9e 5fbe 13ba 80be f73d 6cbe
00000330: dfce 7ebe 6df5 debd 00f3 543e 5fe3 3d3d
00000340: b21a 89be 6106 57bd 4936 243e 459c 3d3d
00000350: 1828 ad3d 61d8 3dbe 3cc7 113e db1d f3bd
00000360: 902b 143e 13a4 e1bc 8afb f63c c60c 1ebe
00000370: b0b9 6c3e b987 d0bd 7c2f 993d 5948 803d
00000380: 6c62 19be 4bab 123e 9a2c 4fbe 1e87 7c3c
00000390: 1eb7 13be 0556 6abe c902 7b3e 9fda 8d3e
000003a0: c8c0 803e 2f19 83be 9fe8 27bd 27ae 2abc
000003b0: 0f27 7b3d 4bb9 3fbe 42db 25be a8be 79be
000003c0: eee3 89be f6ba dfbd ca6b 37bc 0147 1ebe
000003d0: e44c 15be 87c6 133e 0a92 6dbe 7a15 a0bb
000003e0: b282 94be a2c9 483d 7c47 88bd d9cc 88bd
000003f0: 777a 483e 09cd b43d dd21 353e 7432 7e3e

layers.0.bias f4 [64]
0.032360308 0.14282458 -0.23670079 -0.001610132 0.029015468 -0.028686767 -0.09668922 -0.01438597
0.032858115 0.025287258 0.20988418 -0.19954525 -0.2744322 0.18476827 -0.24356133 0.06740672
-0.28798378 -0.0816436 -0.20791693 -0.24162096 -0.030768784 0.2831756 -0.094135985 -0.2352
0.05469841 -0.27200007 -0.00533966 0.20306735 0.011093381 0.058135714 0.064628966 0.09014096
0.18607572 0.15348026 -0.21412987 0.1468442 -0.033603378 0.03184744 0.07113261 0.07557392
0.0046747676 -0.232435 0.038722053 -0.026262244 0.26197475 -0.24697773 -0.010232361 -0.18218203
0.18243888 -0.116806984 0.122134075 0.074386664 -0.22718143 -0.09154043 0.05665742 -0.029005535
0.07153996 0.26605406 -0.015061758 -0.2808548 -0.27451783 0.2399434 0.10523486 -0.028980026
00000000: 3e8c 043d 9b40 123e b161 72be 110b d3ba
00000010: d9b1 ed3c 8300 ebbc ff04 c6bd 22b3 6bbc
00000020: 3b96 063d 3927 cf3c e1eb 563e 9755 4cbe
00000030: 6182 8cbe e533 3d3e 2468 79be 890c 8a3d
00000040: 9c72 93be c234 a7bd 2de8 54be 7c6b 77be
00000050: d10e fcbc 64fc 903e 5eca c0bd 45d8 70be
00000060: 710b 603d 9843 8bbe 51f8 aebb e3f0 4f3e
00000070: 03c1 353c b71f 6e3d 315c 843d d39b b83d
00000080: a28a 3e3e ee29 1d3e dc44 5bbe 535e 163e
00000090: b2a3 09bd 7672 023d f9ad 913d 80c6 9a3d
000000a0: cb2e 993b 7103 6ebe 049b 1e3d eb23 d7bc
000000b0: 8e21 863e bbe7 7cbe a2a5 27bc ed8d 3abe
000000c0: 42d1 3a3e 8038 efbd 6e21 fa3d 0958 983d
000000d0: 40a2 68be 8d79 bbbd 9c11 683d 049d edbc
000000e0: 8b83 923d 3d38 883e 98c5 76bc 33cc 8fbe
000000f0: 9a8d 8cbe b9b3 753e 6085 d73d 8567 edbc

layers.3.weight f4 [32, 64]
-0.0098083215 0.059615817 0.075150296 -0.022463104 0.116711244 0.108211786 -0.077344805 -0.043895565
0.0064586103 0.047221396 -0.016006008 0.064104676 -0.031444147 0.10901301 0.08874054 -0.0786022
-0.048311707 0.00022172928 -0.0974855 0.08990407 0.08938344 0.016091319 0.0015803399 0.11396458
-0.036438826 -0.013962004 0.021359265 -0.0004735763 0.044069786 -0.08498727 0.062459916 -0.032932084
0.1252058 0.11396934 0.003486907 0.042607207 -0.10307326 0.042040627 0.122917555 0.09915724
-0.037192304 -0.106942706 -0.10561189 0.10301539 0.07247869 0.065173484 0.08468664 0.026431745
-0.009986086 -0.023888292 -0.020261088 0.10974993 -0.07773334 0.010150185 -0.0034411727 0.13492209
0.015176662 0.14693819 -0.058403455 -0.07994174 -0.02897262 -0.054920156 -0.013480128 -0.06225325
-0.046169914 0.10630652 -0.02720879 0.059300467 -0.027256846 -0.0023568422 -0.06773697 -0.117912225
0.013865545 -0.04249658 0.114054635 -0.01470238 0.07513665 -0.027938731 -0.06713626 0.06765564
-0.063115165 -0.087242186 -0.032310426 0.0113638695 -0.0476266 -0.042015623 0.0043357993 0.056220785
0.08427008 0.04120859 0.012527943 -0.023891624 -0.012902777 0.10597758 0.12039861 0.03940687
-0.016492799 0.074374065 0.077442035 0.083973125 -0.1274864 0.078152746 -0.11225105 -0.043168884
-0.10502893 0.10837833 0.06719726 -0.08636353 -0.12700565 -0.06002088 -0.12715697 0.081335716
-0.051183235 -0.082316056 0.029692879 -0.093677625 -0.020370763 0.09882368 -0.08251263 0.038973063
-0.08968527 -0.0022326221 -0.08374425 -0.09764596 0.06937089 0.08625075 -0.023732012 0.032673746
0.08165497 0.08316519 0.038882256 -0.025597489 -0.07281867 -0.09469642 -0.092580415 -0.1060581
0.018823951 0.15381923 -0.094194815 -0.040047407 0.07689802 0.102794975 0.121250674 -0.06351821
0.07210401 0.06171885 -0.07548863 0.018366916 -0.089928105 -0.025561575 0.04430788 -0.032526176
-0.012767509 -0.025468793 -0.0069675744 0.01719838 -0.013868854 -0.05999519 0.07944885 0.025072914
-0.08467914 -0.0090638995 -0.15387765 0.044111483 0.03472355 0.069443464 -0.049713038 -0.15054584
0.11992964 0.16240822 -0.03934075 0.04951144 -0.10188182 -0.13665256 0.012247911 -0.049237084
0.018257577 0.057545237 0.03551292 0.051027954 0.065927975 0.011885245 0.085413024 -0.119131275
-0.081039354 -0.17986993 -0.1073532 -0.025584038 -0.030491883 0.035182778 0.109144405 -0.038920045
-0.18380126 -0.02063971 -0.080079556 0.0983443 0.09139179 0.11946429 -0.04393486 0.031837307
-0.07874133 -0.05793772 -0.10809578 0.087187484 -0.1232218 -0.014737276 0.07663764 0.1177581
0.071944885 0.11084528 -0.021360368 0.03373821 0.06246236 -0.04345391 0.10951075 0.13392954
-0.08449947 0.0787698 -0.11338769 0.12025652 0.06342297 -0.114054516 -0.022965834 -0.06554445
0.011294059 -0.10755211 0.15359716 0.1829915 0.12100373 0.027659228 0.14810848 0.07737569
0.0129519 -0.15515442 0.016809016 -0.13424802 0.086007714 -0.021878293 -0.092179656 -8.2918414e-05
0.0482389 -0.11680444 0.02596562 -0.06074138 -0.13034138 -0.06522103 -0.0241298 0.0072919778
-0.04926892 0.053304266 0.08176598 0.04195819 0.089170225 0.07115539 -0.092523485 0.048880592
00000000: 15b3 20bc b72f 743d 66e8 993d 8b04 b8bc
00000010: 4e06 ef3d 249e dd3d f466 9ebd d6cb 33bd
00000020: c0a2 d33b 396b 413d 081f 83bc 5049 833d
00000030: 94cb 00bd 3742 df3d 9abd b53d 31fa a0bd
00000040: 7fe2 45bd 0080 6839 7aa6 c7bd a01f b83d
00000050: aa0e b73d f1d1 833c 6823 cf3a 4366 e93d
00000060: e140 15bd e4c0 64bc a0f9 ae3c 564a f8b9
00000070: 8582 343d ce0d aebd f8d5 7f3d cbe3 06bd
00000080: f335 003e c268 e93d 9884 643b e584 2e3d
00000090: 1318 d3bd cb32 2c3d 33bc fb3d f312 cb3d
000000a0: f556 18bd c704 dbbd 0c4b d8bd bcf9 d23d
000000b0: b56f 943d ad79 853d 3070 ad3d 6387 d83c
000000c0: ae9c 23bc 61b1 c3bc 95fa a5bc 92c4 e03d
000000d0: a832 9fbd f64c 263c 4c85 61bb 0429 0a3e
000000e0: 89a7 783c f776 163e 7638 6fbd 7fb8 a3bd
000000f0: fd57 edbc f5f3 60bd c1db 5cbc 44fd 7ebd
00000100: aa1c 3dbd 3cb7 d93d f8e4 debc 0ce5 723d
00000110: c049 dfbc 4075 1abb aeb9 8abd f77b f1bd
00000120: 502c 633c e510 2ebd 7a95 e93d 40e2 70bc
00000130: 3ee1 993d c4df e4bc bc7e 89bd 0a8f 8a3d
00000140: 8642 81bd 08ac b2bd f057 04bd 862f 3a3c
00000150: 1c14 43bd 9318 2cbd 5213 8e3b c447 663d
00000160: cb95 ac3d 57ca 283d 0042 4d3c 5eb8 c3bc
00000170: 2b66 53bc c60a d93d 8c93 f63d 1969 213d
00000180: e81b 87bc 6e51 983d ee99 9e3d 1afa ab3d
00000190: cb8b 02be 8c0e a03d e1e3 e5bd dbd1 30bd
000001a0: 6819 d7bd 75f5 dd3d b89e 893d 5ddf b0bd
000001b0: c50d 02be 74d8 75bd 7035 02be 5793 a63d
000001c0: 83a5 51bd 5295 a8bd 7b3e f33c 0eda bfbd
000001d0: 96e0 a6bc 1264 ca3d 62fc a8bd 38a2 1f3d
000001e0: e9ac b7bd 2f51 12bb 1b82 abbd 9bfa c7bd
000001f0: 5312 8e3d 3ca4 b03d a369 c2bc e8d4 053d
00000200: b93a a73d 8352 aa3d 0043 1f3d d3b1 d1bc
00000210: f421 95bd 32f0 c1bd cd9a bdbd fd34 d9bd
00000220: b034 9a3c ca82 1d3e 36e9 c0bd c008 24bd
00000230: b67c 9d3d 2c86 d23d 4652 f83d d615 82bd
00000240: 44ab 933d e8cc 7c3d c899 9abd 3776 963c
00000250: 3a2c b8bd 8266 d1bc 2e7c 353d 2b3a 05bd
00000260: d02e 51bc eea3 d0bc 4050 e4bb 9ee3 8c3c
00000270: 313a 63bc 84bd 75bd 14b6 a23d b665 cd3c
00000280: 426c adbd c080 14bc 1a92 1dbe 3eae 343d
00000290: 483a 0e3d 6038 8e3d e69f 4bbd b028 1abe
000002a0: ac9d f53d 574e 263e c423 21bd 82cc 4a3d
000002b0: 6aa7 d0bd a6ee 0bbe 76ab 483c d3ac 49bd
000002c0: ea90 953c 8eb4 6b3d ff75 113d b002 513d
000002d0: 3f05 873d 55ba 423c 06ed ae3d 19fb f3bd
000002e0: f6f7 a5bd d32f 38be ffdb dbbd 9e95 d1bc
000002f0: 1dca f9bc d11b 103d 1a87 df3d a06a 1fbd
00000300: 6636 3cbe 9c14 a9bc c000 a4bd bd68 c93d
00000310: 9e2b bb3d b2a9 f43d 0af5 33bd d667 023d
00000320: 2243 a1bd 1a50 6dbd 5261 ddbd 5a8f b23d
00000330: b65b fcbd 9e74 71bc 32f4 9c3d 292b f13d
00000340: d757 933d da02 e33d f0fb aebc 1431 0a3d
00000350: 88d8 7f3d bafc 31bd 2c47 e03d d324 093e
00000360: 0f0e adbd 1052 a13d ce37 e8bd 0d49 f63d
00000370: e7e3 813d 6a95 e9bd d822 bcbc 2b3c 86bd
00000380: b80a 393c 4844 dcbd 9348 1d3e 2062 3b3e
00000390: ced0 f73d 9b95 e23c c0a9 173e 2577 9e3d
000003a0: 3534 543c cde0 1ebe 10b3 893c 5078 09be
000003b0: d024 b03d 1b3a b3bc b0c8 bcbd 7ce4 adb8
000003c0: 2796 453d 2b37 efbd dab5 d43c f4cb 78bd
000003d0: 3678 05be 9a92 85bd dcab c5bc 8bf1 ee3b
000003e0: 35ce 49bd 9355 5a3d ec74 a73d 5adc 2b3d
000003f0: e19e b63d ebb9 913d f47c bdbd 0437 483d

layers.3.bias f4 [32]
0.008423692 -0.13071778 0.04904794 0.057567764 -0.0650429 -0.0015274285 0.08211289 -0.0743262
0.03921626 0.07472723 0.0995096 -0.12342952 0.024801996 0.0076876045 0.06942567 -0.07360061
0.024395289 0.06725733 0.00015477207 -0.001495477 -0.028620379 0.054185517 -0.022072965 0.013323017
0.04128213 0.04389692 -0.004390196 -0.005389113 -0.13821913 -0.08614095 -0.0066648778 -0.081766635
00000000: 8603 0a3c e2da 05be 7ee6 483d 2dcc 6b3d
00000010: 3635 85bd ff33 c8ba ce2a a83d 5638 98bd
00000020: 3ba1 203d 970a 993d b0cb cb3d 9ec8 fcbd
00000030: 8e2d cb3c 4de8 fb3b 0c2f 8e3d ebbb 96bd
00000040: a1d8 c73c 36be 893d 504a 2239 e203 c4ba
00000050: 4975 eabc a2f1 5d3d 5dd2 b4bc c948 5a3c
00000060: 7317 293d 42cd 333d a2db 8fbb 2897 b0bb
00000070: 5189 0dbe ab6a b0bd 0c65 dabb 4475 a7bd

layers.6.weight f4 [16, 32]
0.15911691 -0.13987303 0.010300326 0.12932052 0.05257679 0.015138742 -0.022447558 -0.14913334
-0.027196974 0.17826606 -0.014589222 -0.106605865 -0.00969082 0.1667594 -0.08624858 -0.15661414
-0.028935315 -0.06657396 -0.059053224 -0.07321432 -0.123349786 0.15964323 0.12280339 -0.07487314
-0.10582265 -0.06113013 -0.09724723 -0.06967381 -0.09931358 0.10414727 0.034389988 0.026061071
-0.18714589 -0.091176584 0.04919869 0.111076996 -0.05883456 0.016793456 0.15966097 0.094458506
0.072199576 0.15832989 0.11436247 0.15680465 -0.15498558 0.1424988 -0.012210507 0.07877856
-0.0456227 0.033036005 0.095648915 -0.055851053 0.07566243 0.07983161 0.111933745 0.21024294
0.14186223 -0.033829443 -0.18809235 0.11287529 -0.109626934 0.023774775 0.10201782 0.014894859
0.08645393 0.07393559 -0.1578378 0.081219316 -0.11196332 -0.10422717 0.122189105 0.06007618
0.03233806 -0.011235992 0.1475124 -0.13797274 -0.09870628 0.01435736 0.037908755 -0.11802077
0.03451341 -0.09971212 -0.046408176 -0.14649324 -0.17685167 -0.046440568 -0.07076105 0.037299667
-0.084118746 -0.13027772 0.09019023 0.12583162 0.062682204 -0.13579841 -0.024245646 -0.008380113
-0.06368123 0.08301277 0.01146884 0.012567532 -0.10786037 0.06297884 0.14514397 -0.18449077
-0.021305716 -0.040139258 -0.15360864 -0.1719352 0.0078420285 0.09816047 -0.024538822 -0.14581853
0.13846852 0.10325547 0.2067584 0.119486906 -0.17735928 -0.15237953 0.17715335 0.13876908
0.05269859 0.119021356 0.02348276 -0.17012133 0.04696062 0.05251207 0.12504981 -0.10975478
0.14829977 0.19490045 -0.080571495 0.2228777 0.059056126 0.038043596 -0.10132688 -0.09087195
0.097374074 -0.15974273 0.13077994 0.11523527 -0.0006408012 0.02169336 0.21424331 0.07400387
0.054082032 0.015181951 0.08155757 0.13291252 -0.067972146 -0.11300645 -0.056159046 0.058132958
0.16172393 -0.09182098 -0.07270675 0.14076744 0.09788679 0.10367824 -0.052245144 0.036703065
-0.09930914 -0.06662516 -0.14299491 0.15904734 0.009710268 0.13101676 -0.024264524 -0.07450667
-0.171373 -0.062490042 0.1978746 -0.15175296 0.18859896 0.19572629 0.017932853 -0.06256387
0.009531076 -0.022656485 0.14983925 -0.076553784 -0.12198932 -0.077104025 0.001595736 -0.12919399
0.09751149 -0.123247124 -0.04422026 0.017462563 -0.11704907 0.17742646 0.19128461 0.17500356
-0.101670675 0.11799646 0.053218555 -0.110907756 0.10741916 -0.05991485 0.120533645 -0.03894326
-0.015062527 -0.06402856 0.039014645 0.16625777 -0.085849866 0.13697621 -0.09790498 -0.02996999
-0.14994986 -0.18300188 0.09929715 -0.044950023 0.005561202 0.09993634 0.00056906685 0.18236476
-0.0077111507 0.0025399583 0.06526603 0.18092275 -0.12347107 -0.066742055 0.13464896 0.025959864
0.09823577 0.14344087 0.04299931 0.086535394 0.13549444 -7.8352576e-05 0.1468252 -0.15045124
0.036004137 -0.10307679 -0.09806556 0.120247684 0.17600393 -0.07421759 0.08729678 0.052015685
-0.038759958 -0.16121638 0.14722753 0.13443509 -0.16743323 -0.119689256 0.19845411 -0.07480083
0.071559235 0.030460829 -0.14405291 0.052499093 -0.09042057 0.129501 -0.11857986 -0.11789613
00000000: 8bef 223e e03a 0fbe b3c2 283c 996c 043e
00000010: c35a 573d 7c08 783c f1e3 b7bc 69b6 18be
00000020: 30cc debc 618b 363e a207 6fbc 2d54 dabd
00000030: 3fc6 1ebc fac2 2a3e 18a3 b0bd 755f 20be
00000040: c109 edbc ee57 88bd cbe1 71bd 64f1 95bd
00000050: d09e fcbd 8479 233e 5880 fb3d 1757 99bd
00000060: 8cb9 d8bd 9663 7abd 8e29 c7bd 24b1 8ebd
00000070: eb64 cbbd 2a4b d53d 84dc 0c3d 077e d53c
00000080: 2ca3 3fbe caba babd 9184 493d 567c e33d
00000090: 82fc 70bd 6e92 893c 2a7e 233e 7673 c13d
000000a0: 5fdd 933d 3b21 223e df36 ea3d 6691 203e
000000b0: 8ab4 1ebe 35eb 113e 940e 48bc a756 a13d
000000c0: dede 3abd c350 073d 94e3 c33d 13c4 64bd
000000d0: e7f4 9a3d c17e a33d 853d e53d ed49 573e
000000e0: 5544 113e be90 0abd 489b 40be 292b e73d
000000f0: 1684 e0bd 51c3 c23c b8ee d03d 9109 743c
00000100: c20e b13d 8b6b 973d 3ba0 21be 5056 a63d
00000110: 064d e5bd 0e75 d5bd 483e fa3d 7112 763d
00000120: ea74 043d 2b17 38bc 7e0d 173e ba48 0dbe
00000130: 8526 cabd 223b 6b3c 3646 1b3d e0b4 f1bd
00000140: ef5d 0d3d de35 ccbd 8016 3ebd 5302 16be
00000150: 9b18 35be 7738 3ebd 2beb 90bd 89c7 183d
00000160: 7346 acbd 8667 05be a8b5 b83d 01da 003e
00000170: 875f 803d bd0e 0bbe ce9e c6bc be4c 09bc
00000180: 4e6b 82bd 9902 aa3d cde7 3b3c 0de8 4d3c
00000190: e6e5 dcbd 0dfb 803d 9fa0 143e 26eb 3cbe
000001a0: 5389 aebc 1069 24bd 954b 1dbe c80f 30be
000001b0: da7b 003c 5b08 c93d a405 c9bc 7451 15be
000001c0: b1ca 0d3e 9b77 d33d 79b8 533e 8db5 f43d
000001d0: ac9d 35be 6109 1cbe b067 353e 7b19 0e3e
000001e0: 7ada 573d 78c1 f33d eb5e c03c 4934 2ebe
000001f0: c759 403d e516 573d 0f0d 003e 1dc7 e0bd
00000200: e5db 173e fc93 473e ab02 a5bd 0d3a 643e
00000210: d6e4 713d 9ad3 1b3d 7884 cfbd 131b babd
00000220: 0f6c c73d 9993 23be 2deb 053e 7800 ec3d
00000230: 71fb 27ba 46b6 b13c 9962 5b3e 578f 973d
00000240: 1f85 5d3d b8bd 783c a807 a73d 381a 083e
00000250: fb34 8bbd ed6f e7bd 0707 66bd d31c 6e3d
00000260: f59a 253e a30c bcbd 47e7 94bd 5725 103e
00000270: df78 c83d 4255 d43d 01ff 55bd f455 163d
00000280: 9762 cbbd c672 88bd 426d 12be 4edd 223e
00000290: d117 1f3c 4229 063e 65c6 c6bc f496 98bd
000002a0: 677c 2fbe 8ff5 7fbd a49f 4a3e 2165 1bbe
000002b0: 1620 413e 796c 483e ebe7 923c 7c21 80bd
000002c0: 3b28 1c3c 189a b9bc 766f 193e 3bc8 9cbd
000002d0: 89d5 f9bd b7e8 9dbd 0428 d13a 6e4b 04be
000002e0: 1bb4 c73d fd68 fcbd 4e20 35bd a60d 8f3c
000002f0: 6cb7 efbd 48af 353e 1de0 433e 2234 333e
00000300: b738 d0bd 21a8 f13d b3fb 593d 9b23 e3bd
00000310: 94fe db3d 4669 75bd 58da f63d f882 1fbd
00000320: d1c8 76bc 6821 83bd d2cd 1f3d 7a3f 2a3e
00000330: 0ed2 afbd 7e43 0c3e 6882 c8bd a083 f5bc
00000340: 758c 19be d864 3bbe 4e5c cb3d 841d 38bd
00000350: be3a b63b 6cab cc3d 6e2d 153a d4bd 3a3e
00000360: d2ad fcbb 6e75 263b 32aa 853d d043 393e
00000370: 66de fcbd 0fb0 88bd 6be1 093e c8a9 d43c
00000380: d62f c93d 2ae2 123e 0b20 303d 7839 b13d
00000390: 0ebf 0a3e 3851 a4b8 5859 163e e40f 1abe
000003a0: 1379 133d ed19 d3bd 99d6 c8bd 6b44 f63d
000003b0: 603a 343e 64ff 97bd a7c8 b23d 660e 553d
000003c0: c3c2 1ebd e815 25be d0c2 163e 5aa9 093e
000003d0: 9e73 2bbe a41f f5bd 8e37 4b3e 2d31 99bd
000003e0: a68d 923d fd88 f93c 9b82 13be 4a09 573d
000003f0: 6b2e b9bd e99b 043e ffd9 f2bd 8773 f1bd

layers.6.bias f4 [16]
0.16888233 -0.010010533 -0.0092321625 -0.04598973 0.16730534 -0.018452588 0.018448897 0.0129663125
0.022965556 -0.14527914 -0.040094018 0.15388168 -0.06014337 -0.10677718 0.07312876 -0.17203312
00000000: 7def 2c3e 3803 24bc 7f42 17bc ba5f 3cbd
00000010: 1752 2b3e e229 97bc 2422 973c a870 543c
00000020: 4322 bc3c 0ec4 14be a039 24bd 2993 1d3e
00000030: e558 76bd ffad dabd 88c4 953d 7329 30be

layers.8.weight f4 [1, 16]
0.23608862 -0.077910945 -0.09085611 0.20115745 0.10020038 0.30017734 -0.11384527 0.25436383
-0.011536146 -0.19977216 0.21207394 -0.108713314 -0.22234313 -0.1692435 -0.11846864 -0.08958538
00000000: 37c1 713e c68f 9fbd c512 babd 38fc 4d3e
00000010: db35 cd3d d8b0 993e b527 e9bd fa3b 823e
00000020: 1a02 3dbc 1391 4cbe e929 593e 16a5 debd
00000030: ebad 63be 2b4e 2dbe b09f f2bd 8a78 b7bd
