model/gru_model.pth (torch, 63128 bytes, 7 tensors)

gru.weight_ih_l0 f4 [192, 1]
0.043096155 -0.08177095 -0.006675152 0.0979769 0.01914347 0.10853033 0.15260772 -0.024963366
0.07119192 -0.044922043 0.0077692107 0.01668005 -0.056692746 -0.023792295 -0.010266883 -0.065983444
-0.08039786 0.15458147 -0.06894497 -0.04319667 0.11488719 0.13032328 -0.04920944 0.0505788
-0.0367358 0.025178729 0.009915153 0.099103354 -0.040779993 0.06846508 -0.003639823 -0.029963607
0.06566311 -0.025348447 -0.01291057 -0.0466687 -0.082276165 0.16287261 -0.06289714 -0.009694415
0.11307629 -0.114550546 -0.027048266 -0.08980465 0.051271204 -0.0020459164 -0.055004936 0.0361403
0.027221723 -0.095854 0.045268983 0.11635024 0.023579337 -0.03298171 0.074325114 0.053670336
-0.038929597 -0.042326316 0.08483407 0.17307349 -0.0063729556 -0.0184593 -0.11966873 -0.02832007
0.12684539 -0.098692544 0.10723394 -0.08445766 -0.066958144 -0.078403756 -0.0020048982 0.12451686
-0.077258766 -0.008023193 0.008393124 0.006490417 0.0896568 -0.012498579 0.10450644 -0.024808679
0.13467564 -0.02061592 -0.10877723 -0.13524525 -0.017223459 0.12245691 0.06367142 -0.07618131
-0.023999797 -0.08106387 -0.029314602 -0.11287496 -0.08165483 -0.11510038 0.035587396 -0.075645104
-0.039341476 0.010403063 -0.06567387 -0.0022287155 -0.12237579 0.0323992 -0.022410296 0.12900658
0.09784633 -0.09231847 0.05955217 0.020432146 -0.047957495 0.18208565 -0.11459072 -0.08906424
0.08461689 0.016966684 0.069850355 0.02944459 -0.057814065 -0.049923427 0.10114033 -0.033509906
-0.027436951 0.027893972 -0.009808066 -0.049645845 0.11632164 0.070186816 -0.10395085 -0.09209491
-0.014994529 -0.028773522 -0.012556563 -0.15239659 -0.07409233 0.15260069 0.031878576 0.0016424643
-0.046097405 0.053979516 -0.040464997 -0.13613766 0.11553249 0.07515561 -0.003159563 -0.13559222
0.1611976 -0.079897754 0.05315795 0.022565499 -0.17905995 -0.14355654 0.028441044 -0.05867213
0.06012664 -0.051824432 -0.043760233 0.065876916 -0.07026067 0.038906597 0.098346226 -0.07333859
-0.12359854 -0.056039125 -0.12840915 0.09304451 0.09337486 -0.14872365 -0.08897426 0.079606876
-0.17973103 0.065012015 0.06315681 0.009955933 -0.03599555 0.15391766 0.1682261 0.0837128
0.07058738 0.03080771 -0.1346248 -0.14763851 -0.049432494 0.14185849 -0.1423949 -0.046811935
-0.07123332 0.006032196 -0.1035409 -0.09310781 -0.11842625 -0.027284965 0.04886025 0.049962677
00000000: 9885 303d 8777 a7bd 3cbb dabb 1da8 c83d
00000010: c4d2 9c3c 2645 de3d 3345 1c3e f97f ccbc
00000020: 12cd 913d 2d00 38bd dd94 fe3b 9aa4 883c
00000030: a736 68bd 0fe8 c2bc 6e36 28bc 5422 87bd
00000040: a2a7 a4bd 9b4a 1e3e 0533 8dbd feee 30bd
00000050: fa49 eb3d 7773 053e d68f 49bd b72b 4f3d
00000060: 4778 16bd 9f43 ce3c 2a73 223c b3f6 ca3d
00000070: ec08 27bd 6b37 8c3d 198a 6ebb 3d76 f5bc
00000080: 617a 863d 8ca7 cfbc db86 53bc ae27 3fbd
00000090: 6880 a8bd 14c8 263e 37d0 80bd 53d5 1ebc
000000a0: 8b94 e73d 7a99 eabd 5394 ddbc 80eb b7bd
000000b0: c101 523d c814 06bb db4c 61bd da07 143d
000000c0: 1700 df3c 1a4f c4bd f86b 393d 0949 ee3d
000000d0: 7429 c13c d417 07bd c437 983d 6dd5 5b3d
000000e0: a474 1fbd 5c5e 2dbd 7cbd ad3d 2d3a 313e
000000f0: 3ad4 d0bb f537 97bc e114 f5bd 7eff e7bc
00000100: c2e3 013e 511f cabd 789d db3d 23f8 acbd
00000110: 5a21 89bd 2692 a0bd 9c64 03bb b202 ff3d
00000120: d839 9ebd b673 03bc 5083 093c 90ad d43b
00000130: fc9d b73d d7c6 4cbc 7907 d63d 923b cbbc
00000140: 69e8 093e b8e2 a8bc 99c6 debd bb7d 0abe
00000150: 3618 8dbc b0ca fa3d 2966 823d f204 9cbd
00000160: 399b c4bc d004 a6bd 2d25 f0bc fd2a e7bd
00000170: a63a a7bd bfb9 ebbd 17c4 113d d2eb 9abd
00000180: 8724 21bd 9c71 2a3c 0680 86bd a40f 12bb
00000190: 28a0 fabd 06b5 043d cc95 b7bc 4d1a 043e
000001a0: a863 c83d 7711 bdbd faec 733d 5161 a73c
000001b0: 146f 44bd a974 3a3e 8aae eabd 5067 b6bd
000001c0: 9f4b ad3d b7fd 8a3c b40d 8f3d c835 f13c
000001d0: 71ce 6cbd 827c 4cbd a922 cf3d af41 09bd
000001e0: 75c3 e0bc e681 e43c 03b2 20bc 7159 4bbd
000001f0: 0a3a ee3d 1bbe 8f3d 2fe4 d4bd 429c bcbd
00000200: 9dab 75bc 73b6 ebbc 0bba 4dbc da0d 1cbe
00000210: b8bd 97bd 5b43 1c3e 1c93 023d f547 d73a
00000220: a2d0 3cbd a019 5d3d a0be 25bd ac67 0bbe
00000230: 4c9c ec3d 2feb 993d ac10 4fbb b0d8 0abe
00000240: fc10 253e 6fa1 a3bd 27bc 593d 48db b83c
00000250: 7e5b 37be 7c00 13be 31fd e83c 3052 70bd
00000260: 5a47 763d db45 54bd ee3d 33bd 7aea 863d
00000270: d3e4 8fbd 865c 1f3d bf69 c93d 8b32 96bd
00000280: 3b21 fdbd 4889 65bd b07d 03be 1f8e be3d
00000290: 523b bf3d 034b 18be 2338 b6bd ee08 a33d
000002a0: 690b 38be 0525 853d 5c58 813d 361e 233c
000002b0: 1270 13bd 979c 1d3e 7643 2c3e 9e71 ab3d
000002c0: 1e90 903d 7360 fc3c 15db 09be 8d2e 17be
000002d0: ba79 4abd 5a43 113e f8cf 11be dfbd 3fbd
000002e0: c6e2 91bd baa9 c53b 400d d4bd 4faf bebd
000002f0: 7689 f2bd b884 dfbc af21 483d aaa5 4c3d

gru.weight_hh_l0 f4 [192, 64]
0.0722895 -0.17112838 0.019864792 0.032141894 0.05062205 -0.05768531 -0.040977836 -0.13786717
-0.03175156 -0.06524751 0.12610933 0.07667029 0.07965983 0.1573715 -0.13972376 0.07483342
0.0062793004 0.123623855 0.04232329 0.03624031 0.033496864 -0.13006034 0.017370885 0.05881884
-0.07478838 0.048661128 -0.037309762 0.02101047 0.083236404 -0.0092903115 -0.10848475 0.07305372
-0.12135727 0.049617693 -0.08230058 -0.061750114 0.12679173 0.054666717 -0.023275675 -0.051316127
-0.14262682 0.08652675 0.1014939 0.097750284 -0.13597053 -0.055872492 0.07994119 0.093402356
-0.09036584 0.030521637 -0.11895329 0.021728707 0.030695347 0.11637024 -0.043974623 -0.17726274
0.021545079 0.019121947 0.08936765 -0.050240245 -0.09247229 0.11947323 -0.021756884 -0.046546772
-0.071477026 -0.11092502 0.012732818 -0.032279864 -0.11452701 -0.042318534 -0.080442555 -0.032516092
0.046675738 0.014608585 -0.084798016 0.059155356 0.071582966 0.122803345 -0.08329114 -0.06780501
0.098344155 0.055511 -0.102606304 0.10624267 -0.10364362 0.05626422 0.12055019 0.017291028
-0.0030790064 0.02100994 -0.04001728 0.06520255 -0.004271081 -0.081628226 0.113510095 0.022869868
0.11071329 0.050051857 0.11424715 0.06503559 0.07179426 0.076124944 -0.10469007 0.020499116
-0.039210144 -0.014162809 -0.028305724 0.122881114 -0.08560759 -0.08560255 -0.060942296 0.13324434
-0.093829386 0.029737178 -0.07454377 0.010769812 -0.124693856 -0.029708209 0.053397983 -0.050553802
-0.0068785977 0.12188861 0.06420891 -0.091955274 0.01275584 0.030544037 -0.018541262 0.03168728
-0.006319017 0.023406714 0.0015745139 -0.0055593336 0.021945758 0.038941074 0.12387412 -0.014192786
0.11300177 0.14461583 -0.11737952 0.11583066 0.03724054 -0.034642138 -0.026753398 -0.078852236
-0.0055471654 -0.068624556 0.13214843 0.03355858 -0.028002685 -0.068678 0.06524552 -0.14329031
-0.079104 0.029791484 -0.026563527 0.10136359 -0.07833367 0.005997061 -0.14678665 0.050431065
0.13261446 0.117758475 -0.026309013 -0.09352881 -0.091979645 0.14104986 -0.044526298 0.064267114
0.025869224 -0.084016524 -0.11787841 0.11995247 0.06390349 0.0253958 0.057342734 0.07053939
-0.11717132 0.09366777 -0.05708909 0.067698345 0.12117111 0.061531734 0.10054319 0.10077261
-0.08106145 0.027028138 0.15051453 -0.08260808 -0.050209317 -0.12904799 0.008656808 -0.08248963
0.037068307 -0.14503247 0.059039883 -0.08846963 0.0028295661 -0.066581964 0.06588869 -0.086080745
-0.0662284 0.042694073 0.0777988 0.004740503 0.088490464 -0.057097666 -0.058989167 -0.023449678
-0.046064105 0.0798123 0.03269942 -0.13577409 -0.14155225 0.08108188 0.027310463 0.09084427
-0.050281946 0.016886873 0.039759602 0.10266052 -0.02798637 0.0057760314 -0.10858301 0.102091715
-0.017886465 0.0020736188 -0.10298382 -0.06818106 0.10863836 -0.087923795 -0.057854906 0.041199602
0.08363315 -0.12402576 0.0045459615 -0.10347932 0.027807565 0.10791467 0.04449482 -0.12444976
0.008518743 0.12608077 0.028866071 0.08392905 -0.056263927 -0.087672286 -0.13612139 -0.062743805
0.047977135 -0.069129355 -0.11049014 -0.100906454 -0.11177306 0.122978255 -0.00043288054 -0.019068053
00000000: 840c 943d 473c 2fbe 7dbb a23c 38a7 033d
00000010: 1159 4f3d 6e47 6cbd 60d8 27bd 0d2d 0dbe
00000020: ec0d 02bd 7da0 85bd ce22 013e 5005 9d3d
00000030: b124 a33d ff25 213e bf13 0fbe 4442 993d
00000040: 97c2 cd3b 812e fd3d 305b 2d3d b870 143d
00000050: 0234 093d 8a2e 05be 634d 8e3c 06ec 703d
00000060: a62a 99bd e450 473d 1fd2 18bd 261e ac3c
00000070: d977 aa3d 6436 18bc 412d debd 309d 953d
00000080: 298a f8bd ec3b 4b3d 358d a8bd b0ed 7cbd
00000090: b1d5 013e 35ea 5f3d a1ac bebc dc30 52bd
000000a0: c40c 12be f034 b13d 09dc cf3d 4d31 c83d
000000b0: dc3b 0bbe 8eda 64bd 35b8 a33d bc49 bf3d
000000c0: ba11 b9bd 8308 fa3c c89d f3bd 6700 b23c
000000d0: cf74 fb3c 8553 ee3d bc1e 34bd 5d84 35be
000000e0: 4e7f b03c a1a5 9c3c 6306 b73d b7c8 4dbd
000000f0: 1d62 bdbd 61ae f43d 7e3b b2bc d4a7 3ebd
00000100: 8c62 92bd a82c e3bd 4f9d 503c e437 04bd
00000110: 238d eabd 3356 2dbd 11bf a4bd 982f 05bd
00000120: 0f2f 3f3d d958 6f3c 95aa adbd e34c 723d
00000130: 179a 923d 5280 fb3d 8c94 aabd 5add 8abd
00000140: a968 c93d 815f 633d 4123 d2bd c295 d93d
00000150: 1b43 d4bd 5075 663d 05e3 f63d eaa5 8d3c
00000160: 28c9 49bb 0a1d ac3c 29e9 23bd ea88 853d
00000170: 6df4 8bbb b32c a7bd fb77 e83d 9759 bb3c
00000180: a6bd e23d 2d03 4d3d 69fa e93d 6131 853d
00000190: de08 933d 65e7 9b3d bf67 d6bd c3ed a73c
000001a0: d19a 20bd 200b 68bc 68e1 e7bc 18a9 fb3d
000001b0: 0853 afbd 6450 afbd a19e 79bd 3471 083e
000001c0: 9f29 c0bd 629b f33c 67aa 98bd de73 303c
000001d0: 7e5f ffbd a15e f3bc d8b7 5a3d 8111 4fbd
000001e0: dc65 e1bb bca0 f93d f67f 833d 0c53 bcbd
000001f0: dffd 503c 7d37 fa3c d8e3 97bc 85ca 013d
00000200: c20f cfbb 70bf bf3c eb5f ce3a 122b b6bb
00000210: 97c7 b33c ad80 1f3d b7b1 fd3d dc88 68bc
00000220: 796d e73d 2c16 143e ac64 f0bd a038 ed3d
00000230: 8989 183d eae4 0dbd f129 dbbc 487d a1bd
00000240: ffc4 b5bb 088b 8cbd eb51 073e b974 093d
00000250: e365 e5bc 0da7 8cbd 719f 853d b2ba 12be
00000260: 4701 a2bd 450d f43c c19b d9bc b797 cf3d
00000270: 676d a0bd fe82 c43b 3d4f 16be ce90 4e3d
00000280: 16cc 073e 5b2b f13d 0086 d7bc 088c bfbd
00000290: d35f bcbd 606f 103e 3561 36bd 7a9e 833d
000002a0: b2eb d33c db10 acbd 3c6a f1bd a4a9 f53d
000002b0: d5df 823d da0a d03c 37e0 6a3d f576 903d
000002c0: 84f7 efbd e3d4 bf3d 40d6 69bd 6ea5 8a3d
000002d0: 8f28 f83d b308 7c3d 97e9 cd3d df61 ce3d
000002e0: 8c03 a6bd 1d6a dd3c 7b20 1a3e 6d2e a9bd
000002f0: 49a8 4dbd 2825 04be 49d5 0d3c 53f0 a8bd
00000300: f0d4 173d 6483 14be ced3 713d 912f b5bd
00000310: 3e70 393b 205c 88bd a6f0 863d 1a4b b0bd
00000320: c1a2 87bd fbdf 2e3d fa54 9f3d 3956 9b3b
00000330: 7d3a b53d 3edf 69bd a09e 71bd 8a19 c0bc
00000340: b7ad 3cbd a274 a33d d4ef 053d 5d08 0bbe
00000350: 13f3 10be 420e a63d 31ba df3c 900c ba3d
00000360: 71f4 4dbd 5756 8a3c f7da 223d ae3f d23d
00000370: ac43 e5bc dd44 bd3b c560 debd 7615 d13d
00000380: a386 92bc 8de5 073b 2ee9 d2bd 83a2 8bbd
00000390: ca7d de3d 6411 b4bd 44f9 6cbd eac0 283d
000003a0: db47 ab3d 3801 febd 4af6 943b f7ec d3bd
000003b0: b1cc e33c 5e02 dd3d 3340 363d 84df febd
000003c0: 3392 0b3c 511b 013e 8a78 ec3c fee2 ab3d
000003d0: 0175 66bd 878d b3bd 6863 0bbe d37f 80bd
000003e0: ac83 443d b193 8dbd a848 e2bd 0ba8 cebd
000003f0: 46e9 e4bd 06dc fb3d 3ef4 e2b9 9b34 9cbc

gru.bias_ih_l0 f4 [192]
0.048252124 -0.072422124 -0.077139735 -0.071574464 -0.091903 -0.09233361 0.07189105 -0.093749925
0.08948692 -0.011744112 0.029122345 0.015538064 0.045051765 -0.08767688 0.059829686 0.099109374
0.008098051 -0.033014506 0.0988848 0.115605436 0.078953624 0.031587914 -0.0038996022 0.04445747
0.09632764 0.0010049928 0.004924508 -0.08815842 -0.08116127 0.15513194 -0.054125085 0.1394253
-0.036983967 0.036208913 -0.08194886 -0.017545782 0.11100067 0.1441579 0.036461294 -0.1110697
0.020449774 0.09537475 0.014867422 0.008511061 0.08128283 0.07848038 0.06519057 -0.030127075
0.002885696 -0.0335209 0.0033502933 0.062897965 0.03191963 0.070270345 0.012648021 -0.09734199
-0.08077905 -0.010752162 0.007940647 0.034408227 -0.05658042 -0.049686585 0.06754578 -0.063512586
0.032418706 -0.01222321 -0.038848218 0.07448853 -0.028613213 -0.0062256004 -0.06130798 0.11093569
0.0063367556 -0.12874828 0.0020791455 -0.11547485 0.13297172 -0.14209397 -0.053961925 -0.018465169
-0.058366504 -0.07997589 0.051587842 0.070729226 -0.009217973 -0.028942037 0.120495684 -0.04249715
0.028185211 0.041946802 -0.021652138 0.08391574 -0.012418549 -0.04786492 0.015272391 0.057787985
-0.033185963 0.111894846 0.026189676 0.106229 -0.009066356 -0.03238285 -0.026813677 0.10984872
-0.07382188 -0.0044649527 -0.031735 -0.10570346 0.073693916 0.008739819 -0.047932092 -0.11353255
0.11920202 -0.089554474 -0.11151515 -0.013331129 -0.02536981 -0.07130213 0.04738037 0.026730513
0.027419131 0.0875222 -0.008867868 0.040491305 0.030817332 0.031890176 0.050630048 0.090372734
-0.05124581 0.11852943 0.11502475 0.07892377 0.009310548 -0.09854499 -0.014579572 -0.114528865
-0.09020113 0.017925639 -0.058802657 0.116599634 0.0024325196 -0.09982355 -0.061157253 0.094744965
0.06564794 0.12723082 -0.16636187 -0.038946487 -0.0002524162 0.07155841 -0.1398871 0.032182008
-0.13934177 0.084889635 0.05950541 -0.12607709 0.13153943 -0.14270048 0.0417013 0.074895516
-0.044618107 -0.04152244 0.050825782 -0.1137047 0.08915226 -0.11032918 0.074357755 -0.1117522
-0.089111745 -0.09142674 0.082118355 -0.05494678 0.13123499 0.07602929 0.049116343 -0.15161526
0.07092672 0.065934256 0.10484455 0.020893443 0.048951924 0.071801215 -0.019473448 0.06949818
-0.032270707 -0.090039365 -0.13018192 0.015307983 0.03677612 0.009883836 -0.051206823 -0.10529709
00000000: 05a4 453d 0d52 94bd 70fb 9dbd a295 92bd
00000010: a437 bcbd 6719 bdbd 9d3b 933d f6ff bfbd
00000020: eb44 b73d 606a 40bc fc91 ee3c 5d93 7e3c
00000030: 3388 383d f08f b3bd f90f 753d dbf9 ca3d
00000040: b0ad 043c 383a 07bd 1d84 ca3d 8bc2 ec3d
00000050: 70b2 a13d 5462 013d 7890 7fbb 0919 363d
00000060: 6d47 c53d f6b9 833a c45d a13b 678c b4bd
00000070: e137 a6bd e8da 1e3e 44b2 5dbd 81c5 0e3e
00000080: 807c 17bd cc4f 143d ced4 a7bd 2cbc 8fbc
00000090: 5254 e33d 219e 133e 7058 153d 8378 e3bd
000000a0: 4986 a73c d653 c33d 7d96 733c fa71 0b3c
000000b0: 9d77 a63d 52ba a03d a282 853d 0ecd f6bc
000000c0: f21d 3d3b 364d 09bd 9890 5b3b a6d0 803d
000000d0: 28be 023d e6e9 8f3d a539 4f3c 3d5b c7bd
000000e0: 7d6f a5bd d629 30bc 7d19 023c a4ef 0c3d
000000f0: dfc0 67bd 2984 4bbd 7155 8a3d e312 82bd
00000100: 7ac9 043d dc43 48bc 4f1f 1fbd 718d 983d
00000110: 4266 eabc 1f00 ccbb 141e 7bbd 4032 e33d
00000120: 8fa4 cf3b 97d6 03be 4642 083b 147e ecbd
00000130: bd29 083e 1581 11be 2e07 5dbd 4444 97bc
00000140: b711 6fbd 66ca a3bd c64d 533d 7cda 903d
00000150: fb06 17bc da17 edbc 71c6 f63d 7e11 2ebd
00000160: ace4 e63c 69d0 2b3d d35f b1bc 04dc ab3d
00000170: 2b77 4bbc 020e 44bd 0d39 7a3c 18b3 6c3d
00000180: 01ee 07bd 2029 e53d bb8b d63c 978e d93d
00000190: 0e8b 14bc e1a3 04bd 5ba8 dbbc 5ef8 e03d
000001a0: ed2f 97bd bd4e 92bb 8ffc 01bd 0e7b d8bd
000001b0: d6ec 963d 7531 0f3c 7154 44bd c183 e8bd
000001c0: 3020 f43d 5668 b7bd 0e62 e4bd cf6a 5abc
000001d0: 59d4 cfbc da06 92bd eb11 423d f3f9 da3c
000001e0: 169e e03c d73e b33d 894a 11bc 36da 253d
000001f0: a174 fc3c 469f 023d 7461 4f3d 5715 b93d
00000200: 20e7 51bd 8fbf f23d 1992 eb3d c9a2 a13d
00000210: 458b 183c f5d1 c9bd 28df 6ebc 1c8e eabd
00000220: 5fbb b8bd cad8 923c 0edb 70bd cacb ee3d
00000230: e86a 1f3b 4a70 ccbd 0780 7abd a609 c23d
00000240: 6d72 863d cc48 023e c45a 2abe 5a86 1fbd
00000250: bb56 84b9 378d 923d 903e 0fbe 48d1 033d
00000260: 9caf 0ebe 9eda ad3d f2bb 733d 5a1a 01be
00000270: 46b2 063e 1320 12be fbce 2a3d d262 993d
00000280: 7ac1 36bd 6f13 2abd b22e 503d 02de e8bd
00000290: 7695 b63d 44f4 e1bd e148 983d 56de e4bd
000002a0: 3880 b6bd f13d bbbd ab2d a83d e00f 61bd
000002b0: 7762 063e 3fb5 9b3d 382e 493d 0841 1bbe
000002c0: 0742 913d 8a08 873d bdb8 d63d ba28 ab3c
000002d0: d081 483d 840c 933d c886 9fbc 1055 8e3d
000002e0: 4a2e 04bd 8f66 b8bd 694e 05be 56ce 7a3c
000002f0: 8fa2 163d d0ef 213c 3fbe 51bd 00a6 d7bd

gru.bias_hh_l0 f4 [192]
-0.11060439 -0.04047743 -0.11811748 0.021233741 0.098834805 0.021575918 -0.02201839 -0.05924616
-0.010517902 0.0032614637 0.11703607 0.0140526295 0.043306775 -0.05702384 -0.074317485 0.10102327
-0.04054694 -0.057824608 0.006330191 -0.039063886 0.025475843 0.13860638 0.04484661 -0.0088784
0.061475772 -0.015426293 -0.09457534 0.067252085 0.07554354 0.07382691 0.108193405 0.06763745
-0.09076469 0.028763112 -0.048455358 -0.02322572 -0.045807406 0.09360526 0.022912292 0.021252764
0.021779658 -0.07863878 -0.08545555 -0.072252266 -0.09703522 -0.045812555 -0.051398296 0.07256862
0.03784803 -0.12855081 0.07910486 -0.068380915 0.06970058 -0.038741134 0.004818313 0.06154078
0.0622283 0.051710177 0.068398096 -0.018550891 0.03942762 0.10568391 0.0624898 0.009645112
0.04193865 0.025981907 0.09862928 -0.10534084 -0.075632475 -0.029580723 -0.021773264 -0.0529908
0.09351309 0.084065035 -0.023926875 0.017395534 -0.062812865 -0.0048561953 0.073241 -0.085503116
-0.02736356 0.02843827 0.13136557 -0.021537125 -0.027228963 0.03846676 0.09978825 0.0121850455
-0.10570023 -0.020207807 -0.019182732 0.03178229 -0.029435363 -0.11929942 -0.03789746 0.0085938275
0.021379707 0.094443515 0.034695346 0.08809469 -0.11437124 -0.010245256 0.08930335 -0.11123649
-0.06600846 -0.02400335 0.11047693 -0.047836497 -0.12402481 0.035485186 0.016524186 -0.08616863
0.09090087 0.037441745 0.10144795 -0.06922547 -0.012204501 -0.029337049 0.07972689 0.009818379
-0.10432109 0.0400497 -0.07802539 0.12676913 0.11920191 0.001181429 0.03563206 0.047477327
0.072243564 -0.03209895 0.0026384871 0.011966232 -0.090853296 0.11960411 -0.072597116 -0.03994983
0.13460155 -0.060438555 0.11578159 -0.100711845 -0.08947388 0.107939884 -0.09024686 -0.08359454
-0.081772566 0.06655553 -0.07845431 -0.031099208 -0.029062444 0.031491544 -0.06005442 0.13172863
-0.103195064 -0.002077344 0.032785363 0.0066414704 0.023962514 -0.044685386 0.08996583 0.16776386
-0.11364651 -0.09683576 -0.040920757 -0.044402156 0.019487916 -0.027082175 -0.044146642 -0.043564726
-7.027207e-05 -0.02233669 0.07553963 -0.11196139 0.0072315275 -0.091935486 -0.07381327 -0.017368924
-0.10010937 0.037802786 -0.025678134 0.02758832 -0.051416 0.09947155 -0.048729718 -0.11264093
-0.053582016 -0.041429535 -0.026216878 0.08080436 0.032032467 0.016491378 0.09190054 -0.025645284
00000000: 8e84 e2bd a9cb 25bd 94e7 f1bd 62f2 ad3c
00000010: e769 ca3d fbbf b03c e95f b4bc 1aac 72bd
00000020: 4753 2cbc 48be 553b 9bb0 ef3d 003d 663c
00000030: 7262 313d d491 69bd c433 98bd 4ae5 ce3d
00000040: 8c14 26bd 7fd9 6cbd 7e6d cf3b 7401 20bd
00000050: b7b2 d03c d5ee 0d3e 14b1 373d b576 11bc
00000060: 05ce 7b3d 90be 7cbc b7b0 c1bd 76bb 893d
00000070: 92b6 9a3d 9032 973d 8194 dd3d 8185 8a3d
00000080: d6e2 b9bd 9ea0 eb3c 2079 46bd dd43 bebc
00000090: 8ca0 3bbd 1db4 bf3d 8fb2 bb3c 471a ae3c
000000a0: 416b b23c 5e0d a1bd 5203 afbd fff8 93bd
000000b0: 67ba c6bd f2a5 3bbd 0587 52bd db9e 943d
000000c0: 8906 1b3d d3a2 03be bb01 a23d 4b0b 8cbd
000000d0: 2dbf 8e3d 06af 1ebd f0e2 9d3b 2f12 7c3d
000000e0: 1ae3 7e3d 0dce 533d 4d14 8c3d 0af8 97bc
000000f0: db7e 213d ce70 d83d 4ef5 7f3d 8806 1e3c
00000100: ddc7 2b3d 02d8 d43c 26fe c93d f0bc d7bd
00000110: 33e5 9abd 4653 f2bc d85d b2bc e20c 59bd
00000120: ca83 bf3d 4a2a ac3d 4b02 c4bc 1481 8e3c
00000130: 08a4 80bd b820 9fbb 61ff 953d 421c afbd
00000140: 8b29 e0bc 60f7 e83c b284 063e a06e b0bc
00000150: 460f dfbc 528f 1d3d c85d cc3d c9a3 473c
00000160: 5d79 d8bd d88a a5bc 1b25 9dbc 262e 023d
00000170: 6e22 f1bc 4153 f4bd 5e3a 1bbd 20cd 0c3c
00000180: 7f24 af3c 9a6b c13d b51c 0e3d fd6a b43d
00000190: 783b eabd b8db 27bc ade4 b63d f5cf e3bd
000001a0: 722f 87bd aca2 c4bc bb41 e23d 34f0 43bd
000001b0: b800 febd ea58 113d bb5d 873c 2e79 b0bd
000001c0: 3c2a ba3d 845c 193d f1c3 cf3d 15c6 8dbd
000001d0: 63f5 47bc 4054 f0bc da47 a33d 44dd 203c
000001e0: 4ca6 d5bd 270b 243d c7cb 9fbd c4cf 013e
000001f0: 2220 f43d 2eda 9a3a ecf2 113d 9677 423d
00000200: 6ff4 933d 307a 03bd 78ea 2c3b 040e 443c
00000210: 4b11 babd 00f3 f43d ccad 94bd 6fa2 23bd
00000220: fdd4 093e 6b8e 77bd e61e ed3d 0342 cebd
00000230: 153e b7bd 960f dd3d 59d3 b8bd 9d33 abbd
00000240: 6078 a7bd 444e 883d a7ac a0bd c4c3 febc
00000250: 5d14 eebc 47fd 003d a0fb 75bd dfe3 063e
00000260: ef57 d3bd 0d24 08bb f249 063d b1a0 d93b
00000270: 094d c43c 0608 37bd 0140 b83d 4aca 2b3e
00000280: 80bf e8bd d451 c6bd 869c 27bd 09df 35bd
00000290: 1fa5 9f3c 70db ddbc 1cd3 34bd ed70 32bd
000002a0: 085f 93b8 6ffb b6bc 86b4 9a3d 034c e5bd
000002b0: 73f6 ec3b ac48 bcbd 692b 97bd 4649 8ebc
000002c0: 2406 cdbd 18d7 1a3d f35a d2bc e700 e23c
000002d0: 9599 52bd bdb7 cb3d d098 47bd 4ab0 e6bd
000002e0: d178 5bbd 04b2 29bd c7c4 d6bc c27c a53d
000002f0: 7a34 033d ed18 873c 5a36 bc3d 0f16 d2bc

fc.0.weight f4 [32, 64]
-0.08161333 -0.020211559 0.10304365 0.008901982 -0.05450855 0.07589659 0.013321005 -0.092082046
0.107376054 0.056129646 -0.08520267 -0.095168285 0.041707378 0.06125241 0.09137342 -0.12749529
0.0060342005 0.096643314 -0.11035524 -0.05287803 0.05097947 -0.13670985 -0.13064429 -0.036353778
-0.03053769 -0.056494176 0.023880698 0.043008327 0.027871395 -0.1368982 0.11423445 -0.032737833
0.101387486 -0.013781849 0.043837897 -0.14505972 -0.015365943 0.095616095 0.026545608 0.080811456
-0.12506871 -0.1568565 -0.0675752 -0.032870613 0.02367992 0.061487786 -0.09023387 -0.08426802
0.15672904 -0.0075099757 0.06087537 -0.07733296 0.1129101 -0.053631842 0.013691572 -0.006278447
-0.020523837 -0.126806 0.0048484025 0.06516023 0.05225339 0.13467307 -0.056988657 0.043746285
-0.02892101 -0.0325397 -0.054209206 -0.08679786 0.012036972 -0.08119894 -0.04716017 0.040206846
0.14687902 -0.073587656 -0.051826462 -0.07261707 0.07623261 -0.05913321 0.08213977 0.105782464
0.124259405 0.067581676 0.058627438 -0.006229209 0.017549338 -0.07668187 -0.113963164 0.068301775
-0.0129945865 0.05057799 -0.009929608 -0.15972172 0.016356809 -0.19276512 0.12128901 0.17234676
0.048984777 0.07678537 0.06677334 0.02227972 -0.024520904 -0.09924913 0.06308392 0.13386369
-0.1384159 -0.051409226 0.078006096 0.05867734 0.16134903 0.13430522 0.022648694 -0.14961244
0.11709945 0.0020079464 0.043985344 0.03008383 0.040304095 0.097199984 -0.07140837 0.14258502
0.122093305 -0.07420683 -0.070986316 -0.0192586 0.015357862 0.076196305 -0.074065045 -0.081516966
-0.1123291 0.1601749 0.14565612 0.022272928 0.1415049 0.023899086 0.0076371403 -0.13182995
0.14512578 -0.06467863 0.01621574 0.061444923 0.12087427 0.051490027 0.0035942602 -0.034114838
-0.07382107 0.17932907 0.03320642 -0.14102568 0.0136731835 -0.15254769 -0.045101944 -0.051148985
-0.0066388627 -0.029715905 0.15936987 -0.1528945 0.029510258 -0.13158223 0.025107471 0.12988529
0.03982169 -0.07398459 0.013814913 -0.062957995 -0.04270391 -0.098509036 -0.031047927 -0.07692717
0.097530775 -0.0882205 0.07112981 -0.100435674 -0.06096639 0.022575362 -0.00082145847 -0.050013714
-0.0721053 -0.05859355 -0.03689982 0.023183165 -0.022416763 -0.011559704 -0.094146885 -0.015421102
-0.0071853036 -0.09090264 0.104045995 -0.10918308 0.1056078 0.09912225 0.108772814 -0.15246978
0.040461283 -0.018288182 -0.021760944 0.030026412 -0.08496635 0.052076526 -0.09272513 -0.054926645
-0.025103599 0.05075496 0.058777574 -0.08236828 0.05275825 -0.017660249 0.09656013 0.12097513
0.091045864 0.018642755 0.060738042 0.120887466 0.07756671 -0.04518778 -0.086260974 -0.010047287
0.069423966 0.115077056 -0.024432417 -0.00025856632 0.015033486 -0.05768495 -0.06813162 0.07353742
0.050050113 0.05656372 0.123356044 0.07282701 0.05925894 2.619854e-05 0.050765492 -0.04616986
0.06962533 0.037392844 -0.09051391 0.09731576 0.04590938 0.049528494 0.009472509 0.090703174
-0.0002818132 0.017341198 0.041307364 -0.073493086 -0.004127153 0.020828087 -0.06814786 0.047117695
0.12165585 0.052907377 0.11290743 -0.045483455 0.043936476 0.093320504 -0.077575825 0.061209824
00000000: e424 a7bd b692 a5bc 8d08 d33d 9ed9 113c
00000010: 5b44 5fbd ac6f 9b3d 5840 5a3c 8395 bcbd
00000020: fae7 db3d 33e8 653d bd7e aebd 97e7 c2bd
00000030: 5bd5 2a3d cfe3 7a3d fd21 bb3d 208e 02be
00000040: 8bba c53b eeec c53d ee01 e2bd a296 58bd
00000050: d9cf 503d abfd 0bbe 9ec7 05be b3e7 14bd
00000060: 2d2a fabc 7066 67bd 74a1 c33c 8029 303d
00000070: 8d52 e43c 0b2f 0cbe c0f3 e93d 1b18 06bd
00000080: 3ea4 cf3d 44cd 61bc 5e8f 333d 898a 14be
00000090: 70c1 7bbc 5fd2 c33d 2d76 d93c 7a80 a53d
000000a0: 0312 00be fe9e 20be de64 8abd 56a3 06bd
000000b0: 64fc c13c 9eda 7b3d 89cc b8bd b694 acbd
000000c0: 947d 203e 3e16 f6bb 7458 793d be60 9ebd
000000d0: 693d e73d 10ad 5bbd 9d52 603c 6ebb cdbb
000000e0: 9b21 a8bc 6fd9 01be 59df 9e3b ba72 853d
000000f0: a707 563d bde7 093e f06c 69bd 4e2f 333d
00000100: c1eb ecbc 5948 05bd 790a 5ebd 14c3 b1bd
00000110: b836 453c a14b a6bd 062b 41bd efaf 243d
00000120: 7467 163e 20b5 96bd fc47 54bd 42b8 94bd
00000130: d81f 9c3d aa35 72bd e538 a83d 7aa4 d83d
00000140: b77b fe3d 4368 8a3d 5323 703d 641e ccbb
00000150: a1c3 8f3c 620b 9dbd 8565 e9bd cde1 8b3d
00000160: 3fe7 54bc de2a 4f3d cbaf 22bc 178e 23be
00000170: b7fe 853c 3864 45be 5f66 f83d ab7b 303e
00000180: 43a4 483d a641 9d3d 76c0 883d f683 b63c
00000190: 10e0 c8bc 2143 cbbd 2432 813d 9013 093e
000001a0: e6bc 0dbe 7b92 52bd a9c1 9f3d a757 703d
000001b0: ae38 253e 4f87 093e c189 b93c 0134 19be
000001c0: d6d1 ef3d c097 033b fa29 343d 5d72 f63c
000001d0: e815 253d c910 c73d 8d3e 92bd cf01 123e
000001e0: 0e0c fa3d c0f9 97bd 4661 91bd 36c4 9dbc
000001f0: 8b9f 7b3c cf0c 9c3d 6aaf 97bd 5ef2 a6bd
00000200: cd0c e6bd e404 243e e126 153e b775 b63c
00000210: a9e6 103e 04c8 c33c fa40 fa3b 6efe 06be
00000220: da9b 143e 3b76 84bd dfd6 843c acad 7b3d
00000230: ee8c f73d 35e7 523d ae8d 6b3b 00bc 0bbd
00000240: 802f 97bd 0aa2 373e 7403 083d 0969 10be
00000250: 7d05 603c 7635 1cbe d1bc 38bd 9981 51bd
00000260: d18a d9bb c56e f3bc db31 233e 6090 1cbe
00000270: 7fbf f13c 7ebd 06be 2fae cd3c a600 053e
00000280: 121c 233d 3c85 97bd f257 623c 1ff0 80bd
00000290: 4cea 2ebd 1bbf c9bd 3958 febc fe8b 9dbd
000002a0: 37be c73d f3ac b4bd 81ac 913d 38b1 cdbd
000002b0: e5b7 79bd f7ef b83c 2557 57ba 2edb 4cbd
000002c0: f2ab 93bd caff 6fbd 4424 17bd 9fea bd3c
000002d0: 5ca3 b7bc ea64 3dbc 15d0 c0bd caa8 7cbc
000002e0: b272 ebbb 2a2b babd 1116 d53d 619b dfbd
000002f0: e748 d83d 9b00 cb3d 48c4 de3d 0a21 1cbe
00000300: bbba 253d 19d1 95bc 0244 b2bc f3f9 f53c
00000310: d602 aebd 324e 553d ace6 bdbd c3fa 60bd
00000320: 10a6 cdbc 6fe4 4f3d c1c0 703d b3b0 a8bd
00000330: 0919 583d 3aac 90bc 51c1 c53d cfc1 f73d
00000340: 4176 ba3d b1b8 983c 74c8 783d d993 f73d
00000350: 4cdb 9e3d d216 39bd 98a9 b0bd 609d 24bc
00000360: 272e 8e3d 85ad eb3d 7e26 c8bc 2f90 87b9
00000370: 034f 763c 0e47 6cbd 9788 8bbd c99a 963d
00000380: 5901 4d3d 5caf 673d 18a2 fc3d 5426 953d
00000390: 81b9 723d f0c4 db37 7aef 4f3d 9b1c 3dbd
000003a0: ba97 8e3d 3d29 193d 5b5f b9bd 7c4d c73d
000003b0: 790b 3c3d 64de 4a3d 9532 1b3c 96c2 b93d
000003c0: 54c0 93b9 210f 8e3c e931 293d 8b83 96bd
000003d0: 123d 87bb aa9f aa3c 1b91 8bbd 7cfe 403d
000003e0: b426 f93d 68b5 583d 033c e73d dc4c 3abd
000003f0: bcf6 333d d21e bf3d 13e0 9ebd 27b7 7a3d

fc.0.bias f4 [32]
-0.0144252535 0.14110734 0.16348782 -0.011413717 0.119505756 0.0050205775 0.057879936 -0.047685035
0.010024142 0.0034773091 -0.014410966 0.11582741 0.0006717867 0.026377138 0.03915499 -0.09980966
-0.08227992 -0.09789366 0.06501925 -0.11389304 0.09552553 0.09971151 -0.0069085513 -0.02705551
-0.00540009 -0.03839544 0.119384676 -0.07040057 -0.098460115 0.13645995 0.0660102 0.081881605
00000000: e657 6cbc 717e 103e 5a69 273e 9900 3bbc
00000010: 6fbf f43d a883 a43b 8313 6d3d 6251 43bd
00000020: 4d3c 243c 91e3 633b f91b 6cbc ec36 ed3d
00000030: d81a 303a de14 d83c fc60 203d 0269 ccbd
00000040: 6082 a8bd 797c c8bd d028 853d c140 e9bd
00000050: e4a2 c33d 8c35 cc3d 2161 e2bb 84a3 ddbc
00000060: 3df3 b0bb 8944 1dbd f47f f43d 2d2e 90bd
00000070: 75a5 c9bd 28bc 0b3e 5b30 873d 8bb1 a73d

fc.3.weight f4 [1, 32]
0.05464668 0.14688563 0.11047892 0.08565424 -0.16048637 -0.11604449 0.1778398 -0.15958856
-0.095842466 -0.10430756 -0.077150986 0.076495536 0.052361935 0.21119633 -0.10716822 0.19503607
-0.11169744 0.16935088 0.1087795 -0.059243668 0.17135036 -0.078084655 -0.18749222 0.11912924
0.136997 -0.06703776 -0.13268064 -0.118123546 -0.13192283 0.21988007 -0.061616953 -0.17419583
00000000: 32d5 5f3d 3069 163e c642 e23d 7d6b af3d
00000010: 8a56 24be bca8 edbd a31b 363e 2f6b 23be
00000020: 0e49 c4bd 349f d5bd 5601 9ebd b1a9 9c3d
00000030: 7879 563d da43 583e 037b dbbd 89b7 473e
00000040: a1c1 e4bd 516a 2d3e c9c7 de3d 7da9 72bd
00000050: 7876 2f3e d9ea 9fbd f6fd 3fbe 08fa f33d
00000060: f148 0c3e 184b 89bd 6fdd 07be c2ea f1bd
00000070: c716 07be 3e28 613e 0f62 7cbd 6460 32be
